learned_embeds_textual_inversion/learned_embeds.safetensors (safetensors, 3184 bytes, 1 tensors)

<licia> f4 [1, 768]
00000000: d793 9bbd 28fa 1f3d 0a01 9b3d 1adb d93d
00000010: 2e4b a7bd b6a3 f3bd 78f3 10bd c203 28bd
00000020: dfa6 c83c c4df 7a3d 2e31 f73d c870 813d
00000030: 171a 32bd bd10 d3bd 675e 02bd c7f3 043d
00000040: 3749 80bc 2ff8 ff3d fc81 63bd 3afa d9bc
00000050: e23f 3f3c aba3 213d d4f4 06be 2670 c7bd
00000060: 9877 59bd 4a62 e5bd ccb7 583e fa2f 35bd
00000070: 2d1b 08bb 1276 1bbd 674f afbd 6702 23bd
00000080: 467b 4cbd d1e3 84bd ee5e 43bc 64d6 de3e
00000090: 12f6 47bd 38be ad3c f8ba 573d 3daa fa3d
000000a0: 9b9d 393d d107 41bd 92dd 5fbd f374 0fbe
000000b0: 956b 17bb 283e 1ebc e20f 0dbc 52d4 893d
000000c0: 9146 9a3d 981b 92bd 5688 50bc e50f 2c3c
000000d0: 2a57 583d 06db cf3c 1c65 05bc ee77 5d3c
000000e0: 917b 113d 1a16 9a3c 06d9 b03c 9177 123d
000000f0: 4267 d0bc 56fb d4bc f6f6 2bbd 4cda 03bd
00000100: 7298 ba3d fc8f 0c3e 5dba ce3d c5ec 2c3c
00000110: 77ed 0ebe e475 8e3d f3fb e9bd 3edf e23d
00000120: 2a59 38be 53e9 923d 858f 4ebd d64d d6bc
00000130: 311b 45bd 31a5 0abd f052 92bd b48c b5ba
00000140: 6caa 4a3d 8d4e 6ebc 92db 043d 0068 88bb
00000150: 659a adbd b22e babd c89e 873d 5cee 58bd
00000160: c729 f73b 86d9 00be fb9e 2a3d cfdc f3ba
00000170: 98ac 503d 82f7 f4bd 64c6 4d3d d47d 84bd
00000180: 02f9 93bd 0c86 ffbb 6268 cabd cb84 633d
00000190: a246 063b 4189 ecb9 6e10 8e3d 9525 fcbd
000001a0: 1205 acbd ee20 58bd a63a fd3d 0caa e8bc
000001b0: 0977 2b3d ff4e 813d 21c9 003e c7c9 91bd
000001c0: b654 a53d 78c4 873d 2d3d b53a ef7d 213c
000001d0: 39ba ba3c f90b 413d 62b7 6c3d 47fb 29bc
000001e0: e249 883d 74b6 a2bd a77e 553d 7299 44bd
000001f0: 2c0f 9b3c b550 223d b09c 09bd 584e babd
00000200: af11 6c3d 7b03 2c3d 5243 f73c 0a7f 973d
00000210: f810 ca3c e7dd 583d f895 063d cd13 86bd
00000220: 3ffd 5b3a 738c 7a3c 3dbb a8bd 390b 473c
00000230: 298a 0abe bbaf 983d f310 673d 1691 54bd
00000240: 2249 233c 3d2e 11bd 427c b6bd a720 c93c
00000250: 4ad5 a4bc 446b 9ebd 65fe bebc a4a4 ac3c
00000260: 93db a43d 8de4 bb3c 29bf 40bd 434a abbd
00000270: 6f1d 6d3d ee95 663c e08f 0d3e 48be b2bd
00000280: 952e 8abd fce5 3e3b 41f6 993d 0ba3 c7bd
00000290: b667 0bbd 2d0a e73c 50e6 65bd 902e fc3b
000002a0: 152e b03d 739d b73c f103 ae3d fff6 5d3d
000002b0: deac 00be 487e e53c c662 12bd a902 06bd
000002c0: 262e 0cbe 9428 313d 1979 24bd 47ac 3abd
000002d0: 8f05 62bb b580 7d3d fcca c13d 2d54 a539
000002e0: 7e29 00bd deed b7bb 48e2 8bbc a03e b1bd
000002f0: 2850 a3bd f6c4 f13b c128 eebc 3e18 8f3d
00000300: e649 51bd 7c91 c63d 1de3 7c3d 3649 ab3d
00000310: 573c b7bc 998d 23bd 630c e73d 547b 7abd
00000320: a211 a7bc de4b 2e3c e9b8 133e d178 86bd
00000330: 6fd2 d439 79da d53d 28d3 ec3c 0e5c 023c
00000340: cc92 0dbd 2f26 023e 115a 443d f99e 61bd
00000350: e133 bf3c eaa6 453c 979d 5bbd 1c14 d83d
00000360: 733c 7abd 62bd d33d 7d11 043d 6155 993c
00000370: ab8f b03c 4ab2 3fbd 073e c83c 4601 aa3d
00000380: 2018 2d3e 3764 9dbc 807c 1bbd f8cc 2cbe
00000390: c472 163c 0da6 e03b 8705 2ebd 8ddc 8abd
000003a0: 9929 d3bc d098 9e3c 9177 8a3d d6fb e23d
000003b0: 9136 a53c 9ab9 a3bd 88d6 4b3d 7ab8 e0bd
000003c0: f701 eb3d 681b 2abc 335d 6dbb 3876 a83d
000003d0: a279 283c dc93 14bc d46c 04be e835 be3b
000003e0: 67f5 43bd f1bd 14bc 57c9 d1bd f2e7 ce3d
000003f0: 1428 95bd 4d80 f73c 7014 8dbd 1d6a b53c
-0.075965576 0.039056927 0.075685576 0.106374934 -0.08168636 -0.1189646 -0.03538844 -0.04101921
0.024493633 0.061248556 0.12069927 0.063203394 -0.043481912 -0.10305927 -0.03182831 0.032459047
-0.015659912 0.12498509 -0.055543885 -0.026608575 0.011672946 0.039462727 -0.13179332 -0.097381875
-0.05309257 -0.11200388 0.21163863 -0.044235207 -0.002076815 -0.037954397 -0.08560067 -0.039797213
-0.04992225 -0.06488765 -0.0119244885 0.43522942 -0.048818655 0.021208867 0.05266854 0.122395016
0.04531632 -0.047126595 -0.054654665 -0.14009456 -0.0023104895 -0.009658374 -0.008609744 0.0672995
0.07532991 -0.07134169 -0.0127278175 0.010501836 0.0528175 0.025372993 -0.008141782 0.013517363
0.035518233 0.018809367 0.02158786 0.03575856 -0.025439862 -0.025998753 -0.041983567 -0.032190606
0.09111108 0.137268 0.1009414 0.010554497 -0.13957773 0.069560796 -0.114250086 0.11077736
-0.18002763 0.07173409 -0.05042984 -0.026160162 -0.048121635 -0.033848945 -0.07144725 -0.0013851137
0.049478933 -0.014545095 0.03243596 -0.0041627884 -0.08476714 -0.09090938 0.06622082 -0.052961692
0.007542822 -0.12582979 0.04165552 -0.0018605235 0.05094585 -0.11961271 0.05023803 -0.06469312
-0.07225229 -0.007797962 -0.09883191 0.055546563 0.0020488878 -0.0004511569 0.069367275 -0.12311856
-0.083994046 -0.05276578 0.12364702 -0.028401397 0.041861568 0.063138954 0.12576725 -0.07118564
0.08072798 0.0662927 0.0013827436 0.009856685 0.022793876 0.04713056 0.057792075 -0.010374851
0.06654717 -0.079449564 0.05212274 -0.0479979 0.018928133 0.03962775 -0.033596694 -0.09096974
0.057634052 0.041995507 0.030183468 0.07397278 0.024666294 0.052945998 0.032857865 -0.065467454
0.00083919236 0.015292275 -0.08238838 0.012148672 -0.13529266 0.07455393 0.05641265 -0.051896177
0.009966167 -0.035444487 -0.08910419 0.024551703 -0.020121235 -0.07735303 -0.023314664 0.0210746
0.08049693 0.02293613 -0.047057305 -0.08363774 0.0578894 0.014073832 0.13824415 -0.087276995
-0.06747166 0.002912878 0.07517672 -0.09747895 -0.034034453 0.028203094 -0.056127846 0.0076959804
0.086025394 0.022413945 0.084968455 0.054190632 -0.12565944 0.028014317 -0.03573873 -0.03271738
-0.13689479 0.04325159 -0.04015455 -0.045574453 -0.0034488176 0.061890323 0.09462544 0.00031533968
-0.03128957 -0.005613073 -0.017075673 -0.08654523 -0.07974273 0.007378216 -0.029072167 0.06987046
-0.051095866 0.09695718 0.06174003 0.08363573 -0.02236764 -0.03992996 0.112816595 -0.06115277
-0.02039415 0.010638205 0.14426006 -0.06566013 0.00040592576 0.10442061 0.02890928 0.007956518
-0.034563825 0.12709878 0.047937457 -0.05508325 0.023340167 0.012063721 -0.053617086 0.105507106
-0.061092805 0.10338856 0.03224324 0.01871747 0.021552881 -0.04680089 0.02444364 0.08301024
0.16903734 -0.019212825 -0.03796053 -0.16875064 0.009182636 0.0068557323 -0.04248574 -0.06780348
-0.025776671 0.019359976 0.06761087 0.1108319 0.02016762 -0.07994385 0.04976514 -0.10972686
0.11474984 -0.010382511 -0.003621888 0.082256734 0.010282906 -0.009068456 -0.1293214 0.005804766
-0.047841456 -0.009078489 -0.10243481 0.10102834 -0.07283035 0.030212546 -0.06888664 0.022145325
